…
aste_mode=flip, auto_augment=randaugment, erasing=0.4, crop_fraction=1.0, cfg=None, tracker=botsort.yaml, save_dir=runs/classify/train\n","\u001b[34m\u001b[1mtrain:\u001b[0m /content/dataset/train... found 45000 images in 10 classes ✅ \n","\u001b[34m\u001b[1mval:\u001b[0m /content/dataset/val... found 5000 images in 10 classes ✅ \n","\u001b[34m\u001b[1mtest:\u001b[0m None...\n","Overriding model.yaml nc=1000 with nc=10\n","\n","                   from  n    params  module                                       arguments                     \n","  0                  -1  1       464  ultralytics.nn.modules.conv.Conv             [3, 16, 3, 2]                 \n","  1                  -1  1      4672  ultralytics.nn.modules.conv.Conv             [16, 32, 3, 2]                \n","  2                  -1  1      7360  ultralytics.nn.modules.block.C2f             [32, 32, 1, True]             \n","  3                  -1  1     18560  ultralytics.nn.modules.conv.Conv             [32, 64, 3, 2]                \n","  4                  -1  2     49664  ultralytics.nn.modules.block.C2f             [64, 64, 2, True]             \n","  5                  -1  1     73984  ultralytics.nn.modules.conv.Conv             [64, 128, 3, 2]               \n","  6                  -1  2    197632  ultralytics.nn.modules.block.C2f             [128, 128, 2, True]           \n","  7                  -1  1    295424  ultralytics.nn.modules.conv.Conv             [128, 256, 3, 2]              \n","  8                  -1  1    460288  ultralytics.nn.modules.block.C2f             [256, 256, 1, True]           \n","  9                  -1  1    343050  ultralytics.nn.modules.head.Classify         [256, 10]                     \n","YOLOv8n-cls summary: 99 layers, 1,451,098 parameters, 1,451,098 gradients, 3.4 GFLOPs\n","Transferred 156/158 items from pretrained weights\n","\u001b[34m\u001b[1mTensorBoard: \u001b[0mStart with 'tensorboard --logdir runs/classify/train', view at http://localhost:6006/\n"]},{"name":"stderr","output_type":"stream","text":["\u001b[34m\u001b[1mtrain: \u001b[0mScanni
…
